src/baselines/nn_models/nn_one_layer_ackley_50_16.pt (torch, 6731 bytes, 3 tensors)

0.weight f4 [16, 50]
0.0033442446 0.013667843 -0.0045067267 0.007920308 0.0064311693 0.0007886605 0.003073065 0.009426649
-0.004361414 0.0018920278 0.0060848305 0.41401783 0.008517228 0.01278779 0.002969533 -0.012330624
-0.0023448186 -0.004180017 0.0086031435 0.0013060641 0.0075873565 -0.014734104 -0.0010891897 0.004123646
-0.01941321 0.0047557843 -0.05278461 -0.00017682336 -0.003908729 -0.0032102778 0.02356326 -0.008560292
-0.008905356 -0.0158513 -0.0100701 -0.0055328663 -0.0045255893 -0.006701455 0.00851642 -0.008958632
-0.016141303 0.0019350309 0.008680238 0.0038759685 -0.009768188 0.02233051 0.0034291362 -0.004292812
-0.011984609 0.011045582 0.0002774185 -0.020509675 0.021258943 0.013611786 0.0035944583 0.007926081
-0.008416108 -0.0050159968 0.0005972789 0.010263744 -0.012598918 -0.018140841 -0.014228622 0.0010287925
0.006434979 -0.021558644 -0.0049570613 0.0020972537 0.0009979997 -0.0027802042 0.005060018 -0.008407037
0.01105856 -0.0025367953 0.033190854 0.00067929376 0.015699562 -0.001186679 -0.009218664 -0.0041636187
-0.0035277887 0.020612432 0.00076823914 -0.40777928 0.0013976949 -0.012067389 0.004307032 0.0039601414
-0.00813484 -0.0035176512 -0.01912919 0.002104094 -0.002992286 -0.0025261885 -0.003399105 -0.008087417
0.002395568 0.0021834744 0.009190208 -0.03821375 0.0073144333 0.07735171 0.0008463075 -0.0010569023
-0.0018033609 0.004254874 0.0028428666 -0.001618944 -0.003616586 -0.007193331 -0.011388125 -0.01899946
0.0027271763 -2.478345e-05 0.0055135475 -0.026752857 -0.0063642287 0.0070181214 0.004150117 0.013554937
0.016177356 -0.0033109372 0.0025536765 0.0076427315 -0.038956188 -0.0064140824 0.0063329595 0.004501058
-0.0055868374 -0.004021377 0.03391527 -0.012667136 -0.0024267568 -0.0001678721 -0.006793999 0.0011675406
-0.0019910522 0.021021679 0.07947904 0.0077583366 0.0010349784 -0.0010484129 -0.007058792 -0.014549585
-0.004975576 -0.007539489 -0.0049513336 -0.002202858 0.0023209709 -0.014264679 0.011453261 0.03222149
0.0016567118 0.000912274 -0.0072860117 0.010390935 0.008514149 -0.0005988297 0.0056347274 0.0032486513
0.009653949 -0.01992677 0.0031049342 0.003976236 0.002017983 -0.020024663 0.016557595 0.007382758
0.0028312975 -0.008842688 -0.0056499853 -0.0005485107 0.009948524 0.003031935 -0.051815238 0.006463265
0.013894124 -0.007461423 0.008547547 0.006362336 0.40960968 -0.0038929973 0.0028153511 -0.0052494043
-0.0023975887 -0.011140544 -0.014520176 -0.00330389 -0.0032254169 0.0032645795 0.03283625 -0.00024504782
0.004712474 -0.010079104 0.013854556 -0.038290855 -0.01419937 0.0006701812 -0.0002354146 0.026546761
0.0032280602 -0.047189306 0.007138534 0.0032977997 0.0025385579 0.0010832392 0.015644224 0.0054768766
0.006779951 0.0005459732 0.008490208 0.01101198 -0.0028995913 0.0045885528 -0.0031196442 -0.04149923
-0.0026885776 -0.002871781 0.0026934335 0.0006575045 -0.012045252 0.012096783 -0.0033727859 -0.0074090613
-0.015854347 -0.010221384 0.030768657 -0.0012367635 0.00040477637 -0.0028117108 0.0029388673 0.41391793
0.0004751882 0.020780912 -0.0008693043 -0.0026698257 0.0006640832 0.0040634144 0.007967203 0.006653952
0.010138932 0.0009802105 0.0045551015 -0.00067238486 0.0009804672 0.029213674 0.0035869237 -0.002450284
0.005296412 0.002059289 -0.0033276975 0.4070599 0.027960876 0.014432017 -0.0048137326 0.0005782581
00000000: 1d2b 5b3b 17ef 5f3c 2aad 93bb 2ec4 013c
00000010: 8fbc d23b 1cbe 4e3a 7a65 493b 3b72 1a3c
00000020: 31ea 8ebb ebfd f73a 4263 c73b 25fa d33e
00000030: d88b 0b3c e183 513c 7f9c 423b 6306 4abc
00000040: 87ab 19bb 86f8 88bb 33f4 0c3c 3d30 ab3a
00000050: 5c9f f83b 5067 71bc 24c3 8eba a61f 873b
00000060: 7408 9fbc 69d6 9b3b ad34 58bd a969 39b9
00000070: cc14 80bb 8663 52bb bd07 c13c 7840 0cbc
00000080: c5e7 11bc 96da 81bc 10fd 24bc 0c4d b5bb
00000090: 654b 94bb e197 dbbb 7488 0b3c 3ac7 12bc
000000a0: c43a 84bc dda0 fd3a 8f37 0e3c f603 7e3b
000000b0: c00a 20bc 79ee b63c 5cbb 603b b8aa 8cbb
000000c0: 185b 44bc 87f8 343c 7b72 9139 e803 a8bc
000000d0: 3c27 ae3c f803 5f3c 0191 6b3b 65dc 013c
000000e0: b7e3 09bc 3b5d a4bb b592 1c3a 4329 283c
000000f0: b16b 4ebc 1a9c 94bc 2b1f 69bc 8cd8 863a
00000100: 84dc d23b c19b b0bc d86e a2bb 1472 093b
00000110: 50cf 823a 1634 36bb 82ce a53b abbd 09bc
00000120: f62e 353c 5d40 26bb 22f3 073d a212 323a
00000130: 5e9c 803c 578a 9bba e109 17bc f76e 88bb
00000140: 7932 67bb 67db a83c a863 493a 72c8 d0be
00000150: dc32 b73a 4cb6 45bc 0122 8d3b 13c4 813b
00000160: fe47 05bc 6588 66bb d2b4 9cbc d7e4 093b
00000170: 3b1a 44bb 698e 25bb 85c3 5ebb 1681 04bc
00000180: f6fe 1c3b 9f18 0f3b 8792 163c 0586 1cbd
00000190: eaad ef3b 936a 9e3d bcda 5d3a c287 8aba
000001a0: c05e ecba 786c 8b3b 634f 3a3b bf32 d4ba
000001b0: 3f04 6dbb 09b6 ebbb 4295 3abc c1a4 9bbc
000001c0: 6dba 323b 0ee6 cfb7 fdaa b43b cf28 dbbc
000001d0: 058b d0bb 45f8 e53b b4fd 873b 8715 5e3c
000001e0: 6086 843c 4ffc 58bb 955b 273b e16f fa3b
000001f0: 8690 1fbd 392d d2bb b784 cf3b 9c7d 933b
00000200: ca11 b7bb c1c5 83bb bdea 0a3d d289 4fbc
00000210: 390a 1fbb d306 30b9 32a0 debb 2908 993a
00000220: 507c 02bb a835 ac3c e8c5 a23d a539 fe3b
00000230: 1da8 873a e66a 89ba 704d e7bb 6261 6ebc
00000240: 280a a3bb d10d f7bb cc3e a2bb d35d 10bb
00000250: 6e1b 183b 66b6 69bc 75a6 3b3c aefa 033d
00000260: 0626 d93a ac25 6f3a 7fbf eebb bd3e 2a3c
00000270: ee7e 0b3c c8fa 1cba 85a3 b83b 53e7 543b
00000280: 992b 1e3c 773d a3bc 277c 4b3b 164b 823b
00000290: 2340 043b c30a a4bc cba3 873c 10eb f13b
000002a0: 4a8d 393b ece0 10bc 8323 b9bb eec9 0fba
000002b0: 22ff 223c 6eb3 463b 373c 54bd ccc9 d33b
000002c0: 2ea4 633c f47e f4bb 030b 0c3c 257b d03b
000002d0: 5cb8 d13e a821 7fbb c181 383b 3203 acbb
000002e0: dd20 1dbb d486 36bc 08e6 6dbc 1386 58bb
000002f0: 8461 53bb 8ef2 553b 4e7f 063d c379 80b9
00000300: 196b 9a3b d422 25bc 38fe 623c dfd6 1cbd
00000310: 79a4 68bc 19af 2f3a a0d9 76b9 9878 d93c
00000320: dd8d 533b 9349 41bd 5dea e93b e61f 583b
00000330: ef5d 263b 7afb 8d3a 5128 803c 5f77 b33b
00000340: 5a2a de3b a41f 0f3a 831a 0b3c 976b 343c
00000350: 1207 3ebb 925b 963b f272 4cbb 19fb 29bd
00000360: d932 30bb 7d34 3cbb 5184 303b 615c 2c3a
00000370: 7359 45bc 9631 463c f509 5dbb b6c7 f2bb
00000380: fae0 81bc 9777 27bc 8d0e fc3c e61a a2ba
00000390: 2a38 d439 ae44 38bb 039a 403b 0ded d33e
000003a0: ae22 f939 bb3c aa3c 06e2 63ba 3ef8 2ebb
000003b0: df15 2e3a 6426 853b df88 023c 6509 da3b
000003c0: c31d 263c 687a 803a f642 953b fc42 30ba
000003d0: 0583 803a 8451 ef3c 9812 6b3b f294 20bb
000003e0: 868d ad3b 23f5 063b 8015 5abb 286a d03e
000003f0: 350e e53c 4474 6c3c 84bc 9dbb 3f96 173a

0.bias f4 [16]
-0.56635976 0.18667525 7.9013658 0.23126069 -0.55955595 -0.22576953 0.049378995 -0.95782983
8.2671175 7.8939166 0.16642295 0.18686374 0.09745329 -0.09718437 -0.43407837 8.099746
00000000: f4fc 10bf cc27 3f3e fdd7 fc40 9acf 6c3e
00000010: 0f3f 0fbf 2130 67be a141 4a3d 5634 75bf
00000020: 1d46 0441 f79a fc40 c76a 2a3e 3559 3f3e
00000030: 9795 c73d 9908 c7bd 853f debe 8f98 0141

2.weight f4 [1, 16]
0.007725689 0.008167132 0.36037412 0.008182116 0.008029177 0.00792576 0.008174074 0.007845231
0.6756148 0.35774404 0.008206401 0.008408749 0.007997133 0.008232102 0.008133732 0.58386904
00000000: c727 fd3b 6fcf 053c f582 b83e 480e 063c
00000010: cf8c 033c 0cdb 013c 8dec 053c 4989 003c
00000020: 17f5 2c3f 3a2a b73e 2474 063c d9c4 093c
00000030: 6806 033c f0df 063c 5843 053c 7178 153f
