src/baselines/nn_models/nn_one_layer_michalewicz_50_16.pt (torch, 6377 bytes, 3 tensors)

0.weight f4 [16, 50]
000000 d1 3e c2 3e 6d 21 9c 3e f4 d6 b4 3c eb 92 82 be
       0.3793855 0.30494252 0.022075154 -0.25502715
000010 27 cc 6f be 03 19 32 3d 5a 49 cf 3d 59 84 c0 3c
       -0.23417722 0.043480884 0.101214126 0.023500608
000020 22 ef 14 be 02 24 2d 3e d7 43 67 3c c8 e1 86 bc
       -0.14544347 0.16908267 0.014115295 -0.016465083
000030 72 72 81 be 82 78 95 3c a2 b2 77 bb ca 71 07 3d
       -0.25282627 0.01824594 -0.0037795682 0.033067502
000040 a3 a9 a1 3d 68 a6 44 3e 17 17 89 3d eb 50 e6 3d
       0.07893684 0.19204104 0.06693857 0.11245903
000050 94 a9 d2 3d ca d6 7e 3e d8 35 64 3d 19 69 0d 3e
       0.10286251 0.24886623 0.055715412 0.13809623
000060 1b b5 14 3c 37 37 2c bd 02 20 8f 3e 56 68 5e be
       0.009076382 -0.042044844 0.27954108 -0.21719489
000070 0d af 7b 3c c9 39 18 3e ed d1 01 3e 20 a6 62 3e
       0.01536156 0.14865793 0.12677737 0.22133684
000080 06 13 89 3b fe 62 c5 3d 52 41 e9 3b a9 f2 13 be
       0.004183176 0.09638022 0.0071183825 -0.14448036
000090 f1 e5 68 be 92 6c 8e 3e 82 36 20 3e 10 a4 62 bc
       -0.22743966 0.27817208 0.15645793 -0.013833061
0000a0 ed 83 64 3d 5c e8 c5 3c d4 9a 9e bc 8a b1 be be
       0.055789877 0.02415865 -0.019360937 -0.37244827
0000b0 25 54 0d be 64 46 89 3e b1 d5 e8 bd 3a c8 78 3e
       -0.1380163 0.26811516 -0.113688834 0.2429513
0000c0 7c a2 3b 3e 4c 73 12 3e 15 ab 9d 3c 4c e9 31 ba
       0.18323702 0.14301795 0.019246617 -0.0006786778
0000d0 6d ec dd bb ad d8 d2 3c 46 aa 5e 3c 7f 78 65 c0
       -0.006772569 0.025738085 0.013590401 -3.5854795
0000e0 ea 4f 36 3d fd 78 da bc 0d bd 74 bb 99 b4 24 bd
       0.044509806 -0.02666902 -0.0037344128 -0.040211294
0000f0 37 1a bd 3b 99 4e 58 bc 51 81 0a 3d ca 42 07 3d
       0.0057709473 -0.013202333 0.033814732 0.03302268
000100 f4 5f 16 3d 2f 03 27 3d 2d c2 6c 3c ba d7 bd 3b
       0.0367126 0.04077452 0.014450592 0.005793539
000110 6e d3 8d bc 78 62 80 bc 08 3a ee 3c 1d dc 3b 3d
       -0.017312732 -0.015671954 0.029080406 0.045864213
000120 24 44 e6 3c de 5d 5c 3d 86 90 26 3b 5d 12 e7 bc
       0.028108664 0.053800456 0.0025415733 -0.028206998
000130 1f b6 16 bd 06 64 83 3d ff ec 5e 3d 36 6c c1 3c
       -0.036794778 0.06415562 0.054425236 0.02361117
000140 ed df a1 bc 82 8e 71 bc f6 ae 75 ba 02 6f c8 3c
       -0.019760096 -0.014743449 -0.00093720795 0.024466995
000150 70 87 cc bb a4 62 11 3d 4e ac 93 3c 54 51 82 bc
       -0.0062417313 0.03549446 0.018026497 -0.01590792
000160 e7 01 f3 3c a1 8f 59 bb a0 e2 92 3d af c5 41 3c
       0.029663993 -0.0033197182 0.071721315 0.011826917
000170 c6 dc 37 3d 02 8a 4d 3b 2d 60 bf 3c ef 84 02 3d
       0.04488828 0.0031362777 0.02336129 0.031865057
000180 f8 c5 81 bc 91 a9 6b 3c 48 d4 ba bc b0 7c 03 bd
       -0.01584147 0.0143836895 -0.022806302 -0.032101333
000190 21 74 05 3f 1e 1e a5 3e c6 be a2 3d 79 1b 2c be
       0.52130324 0.3224954 0.079465434 -0.16807355
0001a0 2a e7 8e be d7 27 a9 3c 91 01 bf 3c 87 30 46 be
       -0.2791074 0.02064888 0.023316177 -0.19354449
0001b0 1a 74 f4 bd a8 4d 2b 3e 6f a6 da 3c 1a ce da 3d
       -0.11936207 0.16728842 0.02669069 0.10683842
0001c0 3e 46 4a be 7b f9 7d 3e a1 52 21 3e 46 74 a7 bd
       -0.19753358 0.248022 0.15754177 -0.08176474
0001d0 07 c7 cf 3b 8c 54 f6 3d 2e b3 48 3e 00 78 5c 3e
       0.0063408646 0.12027845 0.19599602 0.21530151
0001e0 65 60 fc 3d ad 9a 24 3e 9d 1e 1d 3d 74 52 e3 3d
       0.12323073 0.16074629 0.038359273 0.11099711
0001f0 94 86 b0 bd aa 21 f7 bd 23 b4 09 3e 8b c3 03 be
       -0.08619419 -0.12066968 0.13447623 -0.12867562
000200 e9 b7 7e 3d 56 9f b7 3d 5d 9d 23 3e 5d 0a 15 3e
       0.06218711 0.08965938 0.15977998 0.14554735
000210 14 ad da 3c 45 a8 2b 3e e3 ce 5f 3e b0 8b 99 bc
       0.026693858 0.16763408 0.21856265 -0.018743366
000220 c6 63 05 be c8 fa 2e 3e 25 1a 07 3e 80 09 77 3c
       -0.13026342 0.17087853 0.13193567 0.015077949
000230 d9 32 44 3e f3 f2 51 3e ee 68 c4 3d fd 4a 7a be
       0.19160022 0.20502834 0.09590326 -0.24442668
000240 41 f4 0c be 51 eb 98 3e b0 56 d0 bd 2c 8e 34 3e
       -0.1376505 0.29867032 -0.10172784 0.1763236
000250 8a 4f 43 3e e2 58 6b 3d e9 3f 4a bb 3b 2f e9 bf
       0.1907331 0.057457812 -0.0030860847 -1.8217539
000260 72 de a5 39 0f a6 ca bb 60 65 b0 3b 5d 27 b7 3a
       0.00031636987 -0.0061843465 0.0053831786 0.0013973523
000270 ef 88 c3 ba a6 9d 94 3c c5 0b 1d bc 6a 99 d6 b9
       -0.0014918129 0.018141579 -0.009585326 -0.00040931563
000280 da 09 9a 3b a1 85 2e 3c 2a 3d d1 bc b9 54 81 3b
       0.0047008814 0.010651977 -0.02554186 0.0039468673
000290 2d e0 a8 bc 57 4a d9 bc 3b 6d 0a 3c d6 63 c8 ba
       -0.020614708 -0.026524706 0.008448894 -0.0015288542
0002a0 4c d7 11 bc d5 c2 e0 3b 1e de 89 bb 3e ab 15 3b
       -0.008901428 0.0068591633 -0.0042073866 0.0022837664
0002b0 1b 53 c9 3b 7d 8b f1 3b ca d7 97 bc 9d e8 c0 ba
       0.00614394 0.0073713646 -0.018535513 -0.0014717762
0002c0 20 7a 06 3c 9f 11 69 3c 59 39 8f 3c 9e 33 03 3c
       0.008207828 0.014225393 0.0174834 0.008007912
0002d0 29 31 90 3c df 43 c6 3b c4 ab 3b bc 29 83 c0 bb
       0.017601566 0.0060505713 -0.011454526 -0.0058750105
0002e0 4c 8d b7 3c e7 01 a5 3b b3 55 56 39 52 05 b6 3b
       0.022406243 0.005035627 0.00020440556 0.0055548334
0002f0 bd 77 a2 3a d1 68 0a bc 1e 67 98 3c 9b d6 f3 bb
       0.0012395304 -0.008447842 0.018603858 -0.0074413544
000300 1f bf 6d bc 51 08 95 3c 23 d1 53 3c 7a 0d 3f 3c
       -0.014510899 0.018192442 0.01292828 0.011660928
000310 0d 92 ad 3b 40 e7 fb ba 95 20 6d bc de 29 d9 39
       0.0052969516 -0.0019218698 -0.0144731 0.0004142066
000320 68 5b f3 3c fa 8e 8f 3d 08 61 38 be 41 e7 60 bd
       0.029706672 0.070096925 -0.18005764 -0.05490804
000330 09 22 15 bd 05 a1 21 3e bf 63 d6 bd 5f d9 9a 3e
       -0.03640941 0.1578408 -0.10468244 0.30243966
000340 fa bd 06 bf 53 ef 87 be 8a 5e 38 3e 67 a5 0b bf
       -0.5263363 -0.26549777 0.18004814 -0.5454926
000350 a2 43 37 bd 48 b2 d2 3e 2a 39 03 bf 4b f5 c8 3e
       -0.044742234 0.41151643 -0.512591 0.39249644
000360 3a 05 e3 3d 65 86 3b be d6 d9 f9 3b 72 51 05 be
       0.11084981 -0.18312986 0.007624845 -0.1301935
000370 be 7c f1 3c 90 e7 9d 3b a1 20 5c bf e6 c1 6c 3e
       0.029478427 0.004818864 -0.8598729 0.23120841
000380 20 b1 93 be d2 d4 3c be e4 70 a5 3e 97 2c 09 3e
       -0.28846073 -0.1844056 0.3231269 0.13395916
000390 06 cf 5d 3c fa 89 e1 3e 0a ce 2b bd 65 43 96 bc
       0.013538128 0.4405058 -0.04194454 -0.018342683
0003a0 a8 87 ad 3e 35 eb 25 3e c7 ff 9e be 7f 97 a5 3d
       0.3389256 0.16203006 -0.31054518 0.08085536
0003b0 97 35 c0 3d 75 2a 17 be f8 95 5e 3e 88 c2 24 be
       0.093852215 -0.1476229 0.21736896 -0.16089833
0003c0 2b cb a4 3e 18 a0 cb 3e 7b 29 f5 3d 3b ac 12 3f
       0.32186255 0.3977058 0.119708024 0.5729405
0003d0 3f 54 9b 3e 1c bb 98 be f4 88 44 3e 8d 1e dd 3e
       0.30337712 -0.29830253 0.19192868 0.4318737
0003e0 dc fa d4 be 9b 11 1b 3e 28 d1 03 3d c7 17 88 3d
       -0.4159764 0.15143435 0.03218189 0.0664516
0003f0 21 30 e0 3c de ee 87 3c 8e 9f 90 bd c1 59 6e bd
       0.0273667 0.016593393 -0.07061683 -0.058191065

0.bias f4 [16]
000000 b1 38 f2 3f 8e 1b 14 40 8f a0 18 40 33 08 2f 40
       1.8923551 2.3141818 2.3847997 2.7348754
000010 70 19 f1 bf 16 70 14 40 11 3d cf bf 0f 64 bd 3e
       -1.8835888 2.3193412 -1.6190511 0.369904
000020 95 09 01 40 dd a5 34 c0 0f 77 9b 3f c9 7d e6 3f
       2.0162098 -2.8226235 1.2145709 1.8007137
000030 fd 8f 2a 40 07 98 7a 40 9c 89 a9 3f 8a 6e ee 3f
       2.6650383 3.915529 1.324512 1.8627484

2.weight f4 [1, 16]
000000 e4 69 3e be ef c6 06 3e a8 2b 84 be 0c 5f 90 3e
       -0.18595082 0.13161825 -0.25814557 0.28197515
000010 fa 5a f4 3d f3 6d 4d 3e 06 88 1c 3e ea 5a c0 3d
       0.11931415 0.20061474 0.15286264 0.093923405
000020 a1 56 19 bd 01 62 27 3f 77 a6 cb 3d 15 b6 44 3e
       -0.03743613 0.6538392 0.0994386 0.19210084
000030 62 95 50 3e b2 92 89 bf 3f c3 05 3e f9 4c 48 be
       0.20369485 -1.0747893 0.13062762 -0.19560613
