src/baselines/nn_models/nn_one_layer_ackley_100_16.pt (torch, 11217 bytes, 3 tensors)

0.weight f4 [16, 100]
0.0017479708 -0.00017556755 0.00026313483 -0.0039904253 -0.005011223 -0.0026836495 0.0012482718 -0.0046907226
0.008601587 0.0043175933 -0.015248594 -0.00097510585 0.0030822596 -0.0050402456 0.011238842 -0.006450617
-0.005068936 0.00013040662 0.0067206994 -0.0036223528 0.0069782864 0.0023481932 0.0122138085 -0.0026096345
0.013622942 0.010930237 0.02162184 -0.0011526251 -0.009552349 0.007883094 -0.0096297655 -0.001619921
0.005021455 0.0077682342 -0.014219699 0.008104987 -0.006713955 -0.0022211585 -0.00084950123 -0.0033509266
0.00082460017 -0.0124876 0.008831149 0.012017025 -0.0030228414 0.006083195 -0.00849405 -0.009981212
0.010376304 -0.008660951 0.00013104852 0.51978505 -0.0039298534 0.007028031 0.00457455 0.0048185387
0.028961342 -0.00014022527 -0.009549229 0.0043538813 -0.030568896 0.008671616 -0.012404812 -0.001806585
-0.016267575 0.019862166 -0.0056440574 -0.0030841485 0.0049011433 0.0008054743 -0.0042791055 0.008099388
-0.023543451 0.012189163 0.0027726844 -0.014887757 -0.0050492296 -0.00075679744 -0.0014691448 0.0045670522
0.0006155894 -0.0019330939 -0.013379741 0.005075647 0.0042487085 0.016351562 -0.00040867896 -0.006453489
0.01197293 0.009459544 -0.007048071 0.014133781 -0.0027385633 -0.0064909765 0.0030831324 -0.0015113298
0.0065195104 -0.0025568437 0.013625394 0.012064123 0.010286428 -0.00062274514 -0.0017314025 0.0002304694
2.6810094e-05 0.00011173092 0.001552366 0.008899483 0.0020110884 -0.00020592057 0.011537077 0.0012730734
0.00067404506 -0.00030295705 0.011896294 -6.6004846e-05 -7.8722864e-05 0.0004699279 0.00062296464 0.002096025
6.3347245e-05 -0.00034290436 0.00018192512 0.00041349395 -0.0021747593 -5.462561e-05 -0.013695083 -0.0005041261
-0.017232832 0.000668313 0.0093645705 -0.00030848445 -0.0011220821 -0.00019151013 0.00095910975 -0.001376983
0.0013010927 0.0012250198 0.00068213 -0.0007027411 0.0001796598 0.0012266677 -5.6736076e-06 -0.0012322463
-0.0011389189 -6.766493e-05 0.00015468599 0.007986899 0.00074246654 0.0018727549 3.5998743e-05 -0.008648904
-0.012125843 -0.0013104294 0.0014098804 1.3346029e-05 -0.00039857707 -0.0020487856 0.0001161763 0.0021040214
0.01268132 0.0004097517 -0.00075585494 -0.0005848806 0.0005797944 -0.00027174072 -0.0007197497 -0.0004201088
-0.0008577697 -0.0006914728 0.0012695651 -0.0037918065 0.01144855 0.00038940218 -0.0005002072 0.003475688
-0.0014252469 0.00013847246 2.640952e-05 -0.00086074875 -0.011526602 0.0006686771 0.00092201977 0.0014132651
-0.000787068 -0.00082827266 -2.942242e-05 0.0009721246 -0.0008979123 -0.0016957492 0.0033233715 0.0001973398
0.0029742648 -0.0017891949 0.0006103441 -0.00020598281 -0.0009821083 -0.00028279136 0.0002958071 -0.00049950456
0.0417403 -0.01225376 0.005500522 0.01074248 -0.01553267 0.012902444 -0.0007761246 -0.016829679
-0.0051218285 -0.009735389 -0.02244818 0.008510395 -0.007040209 -0.0011167442 -0.03315695 -0.0005052722
-0.0017706725 0.008944115 0.010022381 -0.009307035 -0.008344534 0.00042380943 -0.013943503 0.0019483386
0.0015077551 0.0051154783 0.006230562 -0.0046245623 -0.03018014 0.0028425148 -0.53995985 -0.0016930858
0.0013744748 0.016034178 9.4429946e-05 -0.00081528607 -0.0036730643 -0.004983341 0.009067776 0.003724846
0.009400137 -0.0043715863 0.006778615 -0.006050642 -0.0008287102 0.0077854143 0.010604081 -0.03936256
0.002249942 -0.00152178 -0.004437447 -0.015405418 -0.000481916 0.006744906 0.0023365219 0.0025258914
00000000: 2b1c e53a 8e18 38b9 5cf5 8939 1dc2 82bb
00000010: 2f35 a4bb 2be0 2fbb 0d9d a33a a2b4 99bb
00000020: aced 0c3c 997a 8d3b 3dd5 79bc 3f9e 7fba
00000030: bcff 493b a528 a5bb 1f23 383c b35f d3bb
00000040: 5119 a6bb c3bd 0839 5039 dc3b ff64 6dbb
00000050: 1caa e43b 25e4 193b 6d1c 483c 6706 2bbb
00000060: c332 5f3c bd14 333c 4920 b13c ae13 97ba
00000070: 7581 1cbc 1828 013c 2ac6 1dbc 8753 d4ba
00000080: 058b a43b ac8c fe3b bef9 68bc c8ca 043c
00000090: bd00 dcbb db90 11bb 10b1 5eba 389b 5bbb
000000a0: fb29 583a ca98 4cbc 86b0 103c 0ee3 443c
000000b0: dd1a 46bb 8a55 c73b a12a 0bbc 3d88 23bc
000000c0: 6001 2a3c a9e6 0dbc 126a 0939 a210 053f
000000d0: 00c6 80bb 664b e63b 1be6 953b d5e4 9d3b
000000e0: 5640 ed3c 6f09 13b9 5f74 1cbc 01ab 8e3b
000000f0: 9f6b fabc 6513 0e3c 8d3d 4bbc efca ecba
00000100: 9443 85bc fbb5 a23c c9f1 b8bb 6d1f 4abb
00000110: c599 a03b 7726 533a bd37 8cbb 4cb3 043c
00000120: 32de c0bc 0eb5 473c edb5 353b c7eb 73bc
00000130: 0274 a5bb d163 46ba 5290 c0ba 36a7 953b
00000140: 815f 213a de5f fdba b436 5bbc 9d51 a63b
00000150: c038 8b3b b6f3 853c f643 d6b9 ca77 d3bb
00000160: 1c2a 443c 34fc 1a3c 81f3 e6bb 6091 673c
00000170: 7879 33bb 42b2 d4bb 610e 4a3b d017 c6ba
00000180: 9ea1 d53b b890 27bb 0b3d 5f3c 99a8 453c
00000190: 6888 283c b83f 23ba 3af0 e2ba 29aa 7139
000001a0: 3de6 e037 1551 ea38 c278 cb3a 23cf 113c
000001b0: 77cc 033b 62ec 57b9 0206 3d3c 41dd a63a
000001c0: 66b2 303a 35d6 9eb9 ace8 423c 156c 8ab8
000001d0: 0418 a5b8 a860 f639 734e 233a 775d 093b
000001e0: 4bd9 8438 d8c7 b3b9 27c3 3e39 38ca d839
000001f0: 6886 0ebb cd1d 65b8 5761 60bc 5427 04ba
00000200: de2b 8dbc ba31 2f3a db6d 193c 15bc a1b9
00000210: d412 93ba 1cd0 48b9 c46c 7b3a e27b b4ba
00000220: 6d89 aa3a d890 a03a f8d0 323a 2838 38ba
00000230: 0f63 3c39 23c8 a03a eb5f beb6 5383 a1ba
00000240: c747 95ba 55e7 8db8 3433 2239 7cdb 023c
00000250: 16a2 423a 3a77 f53a 5bfd 1638 22b4 0dbc
00000260: 79ab 46bc b7c2 abba bccb b83a c2e8 5f37
00000270: 1cf8 d0b9 eb44 06bb ada3 f338 9fe3 093b
00000280: 50c5 4f3c f1d3 d639 9124 46ba ac52 19ba
00000290: 58fd 173a 6c78 8eb9 96ad 3cba 0c42 dcb9
000002a0: f3db 60ba f443 35ba 8967 a63a f57f 78bb
000002b0: b392 3b3c ad28 cc39 5620 03ba 5ec8 633b
000002c0: 5acf baba eb32 1139 038a dd37 dfa3 61ba
000002d0: 13da 3cbc 294a 2f3a b3b3 713a 4f3d b93a
000002e0: 3d53 4eba 7020 59ba 2ad0 f6b7 2dd6 7e3a
000002f0: e061 6bba e743 deba eccc 593b 00ed 4e39
00000300: e2eb 423b 6b83 eaba 80ff 1f3a 17fd 57b9
00000310: 16ba 80ba 9d43 94b9 8f16 9b39 2ff1 02ba
00000320: e0f7 2a3d ffc3 48bc b93d b43b 3a01 303c
00000330: bd7c 7ebc c664 533c d774 4bba 65de 89bc
00000340: 03d5 a7bb 2e81 1fbc 3fe5 b7bc 2f6f 0b3c
00000350: 8eb1 e6bb b85f 92ba 95cf 07bd 3e74 04ba
00000360: e915 e8ba 568a 123c ea34 243c 897c 18bc
00000370: 83b7 08bc bd32 de39 4a73 64bc 655f ff3a
00000380: de9f c53a be9f a73b be29 cc3b a489 97bb
00000390: 573c f7bc 7c49 3a3b cf3a 0abf 88ea ddba
000003a0: b927 b43a 1c5a 833c b108 c638 ecb8 55ba
000003b0: cbb7 70bb 4b4b a3bb 0291 143c 8c1c 743b
000003c0: 0803 1a3c 863f 8fbb 251f de3b 7744 c6bb
000003d0: cd3d 59ba ca1c ff3b bdbc 2d3c a33a 21bd
000003e0: c373 133b 7776 c7ba 0168 91bb 0267 7cbc
000003f0: aca9 fcb9 5f04 dd3b 5520 193b 6d89 253b

0.bias f4 [16]
-0.7984186 22.625109 -1.186216 -1.0175045 -0.857085 -1.3421693 -0.37002867 -0.4018086
-1.3149203 0.06493684 -0.30763033 -1.3132465 -0.9958846 -0.71259606 -1.218074 5.9956703
00000000: 2965 4cbf 3900 b541 edd5 97bf 963d 82bf
00000010: ec69 5bbf 34cc abbf 6674 bdbe dbb9 cdbe
00000020: 4f4f a8bf 9bfd 843d b981 9dbe 7618 a8bf
00000030: 4bf2 7ebf b26c 36bf d9e9 9bbf 88dc bf40

2.weight f4 [1, 16]
0.0030157077 0.06792589 0.0027544813 0.0029583287 0.0026037057 0.0029540556 -0.051329378 0.0030362632
0.0032645434 0.0031868962 0.002790585 0.002892168 0.002949811 0.0029719057 0.0028487227 0.0020397352
00000000: 2ea3 453b bb1c 8b3d 8784 343b 85e0 413b
00000010: efa2 2a3b d498 413b c13e 52bd 0bfc 463b
00000020: f3f1 553b 3fdb 503b 3fe2 363b 878a 3d3b
00000030: 9e51 413b 4ec4 423b a3b1 3a3b 14ad 053b
