src/baselines/nn_models/nn_one_layer_michalewicz_100_16.pt (torch, 10415 bytes, 3 tensors)

0.weight f4 [16, 100]
-0.3197289 -0.1277948 0.05011578 -0.39421788 0.28105542 -0.37955242 0.1747752 -0.6436365
0.62976205 0.41717267 -0.2782875 -0.38819852 -1.4826742 2.1650658 0.26613513 0.60510653
-0.017050907 0.068859935 0.13382317 -0.24946907 -0.5680338 0.27324855 -0.3577904 0.013494984
0.26913828 0.85695773 0.33103737 -0.6558601 -1.6978657 1.4147521 -1.1397668 0.27025798
-1.3242307 -0.37437016 0.6146527 0.87008876 0.019976256 0.12972012 -0.8144814 -1.1833531
0.111559875 -1.0472641 0.18740903 -0.58146554 0.022061497 -0.5903849 1.2173605 -0.1769137
-0.38587913 1.7184441 -1.0599936 0.69201905 -1.003403 0.5430541 1.0100268 -1.0773491
1.0509847 0.17283797 0.9712039 -0.8569675 -0.7010857 0.27939665 0.2061989 0.9821169
0.754777 -0.0534922 -0.2445803 -0.6043799 -0.4176822 -0.77639234 -1.4451941 -0.28714323
0.81983054 -0.5358921 0.5375058 -0.6077331 0.5418088 -0.41415676 -0.16374199 0.5717594
0.4829079 0.2166047 -0.29331955 -0.4312452 1.2243502 -0.749279 0.4191533 -1.4081366
-0.6691079 0.6759044 0.07763378 -0.14390004 0.21585998 -0.17344846 0.057080913 -0.30216843
-0.05631615 -0.19954737 0.43201298 0.7957541 0.39780134 0.12621224 0.20717807 -0.8389678
0.13938418 -0.15655036 -0.008907213 -0.53788203 -0.08494894 -0.14348392 0.34652442 0.264675
-0.13680103 0.045102373 0.40279865 0.31368446 0.1520286 -0.2001101 0.12617436 -0.48004863
0.7071196 0.25257984 -0.048817392 -0.12913233 0.056720175 0.27900204 -0.48178473 0.35006833
-0.4258744 -0.12817624 0.1915012 0.33918795 0.15914738 0.056594107 0.0101099415 -0.06539631
0.049179446 -0.02808527 0.31422952 0.49730152 0.62043667 0.062415525 0.1203806 0.14904387
-0.12488916 -0.10790205 -0.09887692 0.27229932 -0.15393776 0.04667075 -0.44598296 0.14698815
-0.07162307 0.4237877 0.14039218 -0.38884172 0.17840217 -0.30196145 0.19599457 -0.18505046
0.24918975 -0.01890874 -0.39042294 -0.24095264 -0.25815195 -0.29958984 -0.15875918 0.03195763
0.3850778 -0.23383993 -0.353154 -0.24849601 0.49878016 0.65263605 -0.26588935 0.40531135
-0.10611719 -0.16689509 0.21030669 -0.4407228 0.3603051 -0.22205263 -0.03462415 -0.15090127
-0.025414199 -0.4314749 -0.042024586 -0.18641022 0.0015174353 0.11364905 0.50791967 0.1459665
-0.16629902 -0.10334485 0.3320538 -0.27182305 -0.33885017 0.3799996 -0.17962034 -0.27152276
-0.26017734 0.052890897 -1.7213572 0.15523723 0.6255826 0.27401373 1.1722276 1.0510461
-0.28130502 0.7115609 0.32389194 0.90438306 0.65918994 -0.36267483 0.30421355 0.26752895
-0.6809428 0.8339537 -0.11575385 -0.24298015 -0.5269821 0.06148527 -0.5999417 -0.04951536
-0.24191926 -0.33253658 0.31493407 -0.059078064 -0.029415987 -1.6661353 -0.27769962 0.013368825
0.033054385 -0.747141 -0.28466338 0.38777828 -0.16236284 -0.33529466 0.7690585 0.24885803
0.38946068 0.13682003 -1.3820035 -0.8030678 0.6337511 -0.40181366 -0.3888194 -0.94042665
0.9751673 -0.1274497 -0.6655896 1.7702639 -0.08218096 0.5155762 -0.20751728 -0.7447168
00000000: 82b3 a3be a4dc 02be 3446 4d3d edd6 c9be
00000010: 7fe6 8f3e b254 c2be 45f8 323e 5dc5 24bf
00000020: 1638 213f a897 d53e b37b 8ebe f5c1 c6be
00000030: 45c8 bdbf 7090 0a40 dd42 883e 43e8 1a3f
00000040: 58ae 8bbc 7006 8d3d f108 093e d274 7fbe
00000050: aa6a 11bf 3ce7 8b3e 4e30 b7be 111a 5d3c
00000060: 7ecc 893e 9561 5b3f bb7d a93e 73e6 27bf
00000070: aa53 d9bf 9916 b53f e1e3 91bf 415f 8a3e
00000080: 6480 a9bf 72ad bfbe e159 1d3f 23be 5e3f
00000090: 3fa5 a33c 5ad5 043e da81 50bf 1d78 97bf
000000a0: 8179 e43d c00c 86bf 27e8 3f3e edda 14bf
000000b0: 50ba b43c 7723 17bf 78d2 9b3f dd28 35be
000000c0: f391 c5be faf5 db3f dfad 87bf 2928 313f
000000d0: 826f 80bf 9805 0b3f 8f48 813f 93e6 89bf
000000e0: ab86 863f 70fc 303e d2a0 783f 3962 5bbf
000000f0: 5a7a 33bf 140d 8f3e ce25 533e 036c 7b3f
00000100: 1139 413f a31a 5bbd 4273 7abe a4b8 1abf
00000110: 71da d5be a6c1 46bf 1ffc b8bf 7004 93be
00000120: 6ae0 513f 3a30 09bf fb99 093f 6594 1bbf
00000130: fbb3 0a3f 5b0c d4be fbab 27be d35e 123f
00000140: b43f f73e 9fcd 5d3e fb2d 96be 2ccc dcbe
00000150: 82b7 9c3f c0d0 3fbf 439b d63e d23d b4bf
00000160: a84a 2bbf 1208 2d3f 76fe 9e3d 885a 13be
00000170: 660a 5d3e 799c 31be adcd 693d d2b5 9abe
00000180: c3ab 66bd 2556 4cbe ce30 dd3e 8ab6 4b3f
00000190: 9eac cb3e c83d 013e 7d26 543e 98c6 56bf
000001a0: baba 0e3e bd4e 20be 8fef 11bc a3b2 09bf
000001b0: b6f9 adbd 73ed 12be a66b b13e 7b83 873e
000001c0: 9215 0cbe 44bd 383d a03b ce3e 409b a03e
000001d0: 63ad 1b3e a9e9 4cbe da33 013e efc8 f5be
000001e0: ca05 353f 2552 813e bff4 47bd 443b 04be
000001f0: 6a53 683d 5bd9 8e3e 7dac f6be 283c b33e
00000200: 360c dabe a240 03be e418 443e 0baa ad3e
00000210: 88f7 223e 39cf 673d 2ba4 253c 80ee 85bd
00000220: 6370 493d 1513 e6bc b1e2 a03e 4e9e fe3e
00000230: f0d4 1e3f 6ca7 7f3d 1b8a f63d f59e 183e
00000240: e3c5 ffbd c0fb dcbd fc7f cabd d16a 8b3e
00000250: dca1 1dbe d429 3f3d e157 e4be 1084 163e
00000260: 1eaf 92bd b4fa d83e f8c2 0f3e 4316 c7be
00000270: 0faf 363e b19a 9abe cdb2 483e de7d 3dbe
00000280: 992b 7f3e 80e6 9abc 84e5 c7be 4abc 76be
00000290: 7e2c 84be d763 99be c491 22be 01e6 023d
000002a0: eb28 c53e bc73 6fbe 9ad0 b4be bd75 7ebe
000002b0: 1d60 ff3e 2813 273f a622 88be f884 cf3e
000002c0: f853 d9bd 8ce6 2abe a35a 573e 6ba6 e1be
000002d0: e979 b83e c461 63be 0dd2 0dbd dd85 1abe
000002e0: 7031 d0bc 47ea dcbe f921 2cbd 52e2 3ebe
000002f0: aee4 c63a d5c0 e83d 0607 023f 3e78 153e
00000300: 4a4a 2abe 77a6 d3bd f502 aa3e 642c 8bbe
00000310: c57d adbe 4f8f c23e 65ee 37be 0805 8bbe
00000320: f735 85be 20a4 583d 6f55 dcbf 82f6 1e3e
00000330: 2e26 203f 874b 8c3e 8e0b 963f ae88 863f
00000340: 3607 90be db28 363f 2ad5 a53e a685 673f
00000350: acc0 283f 84b0 b9be e1c1 9b3e 8ef9 883e
00000360: 4452 2ebf fd7d 553f 5b10 edbd cacf 78be
00000370: 4de8 06bf fad7 7b3d c795 19bf 9ed0 4abd
00000380: afb9 77be 3c42 aabe 0a3f a13e d7fb 71bd
00000390: ccf9 f0bc ec43 d5bf a52e 8ebe eb08 5b3c
000003a0: 0964 073d a244 3fbf 66bf 91be e08a c63e
000003b0: 7242 26be beab abbe 05e1 443f a4d4 7e3e
000003c0: 6467 c73e 8d1a 0c3e 7ee5 b0bf da95 4dbf
000003d0: 833d 223f 85ba cdbe 5613 c7be cdbf 70bf
000003e0: 90a4 793f 2d82 02be 1464 2abf 0298 e23f
000003f0: 7e4e a8bd cdfc 033f 697f 54be c3a5 3ebf

0.bias f4 [16]
1.5983851 8.200204 5.63918 8.507281 9.052938 5.2839723 -1.7415137 -0.023694945
-6.2507343 8.8324795 7.861138 -0.00043884228 -2.674144 -3.1652775 4.2922344 6.236969
00000000: e297 cc3f 0934 0341 2a74 b440 d31d 0841
00000010: d6d8 1041 4d16 a940 ece9 debf e71b c2bc
00000020: 0406 c8c0 d651 0d41 718e fb40 6a14 e6b9
00000030: 2d25 2bc0 e893 4ac0 fc59 8940 4095 c740

2.weight f4 [1, 16]
0.039646704 -0.2301501 0.046604756 -0.18842354 -0.24363194 0.0482573 0.039896145 0.20795499
0.069135346 0.08664837 0.0545706 0.0893435 0.042396236 0.041939706 0.043390278 0.045516398
00000000: 9564 223d 78ac 6bbe a1e4 3e3d 1af2 40be
00000010: a77a 79be 72a9 453d 246a 233d 27f2 543e
00000020: d596 8d3d b374 b13d 6c85 5f3d baf9 b63d
00000030: ada7 2d3d f8c8 2b3d 01ba 313d 676f 3a3d
